…
    "options": [
      "A_and_B.sum() / (A.sum() * B.sum())；",
      "A_and_B.sum() / (A.sum() + B.sum())；",
      "A_and_B.sum() / A.sum()；",
      "A_and_B.sum() / B.sum()    VGG16 是由牛津大學 Visual Geometry Group(VGG)在 2014 年提出的經典 卷積神經網路（Convolutional Neural Network, CNN）架構。該模型以簡 潔且規則的層堆疊設計聞名，廣泛應用於影像分類、特徵提取及遷移學習 等任務。附圖程式碼載入了預訓練的 VGG16 模型，並輸出其完整層級結構 及參數統計摘要（如附表） 。請根據此資訊回答42~45 題。    ----------------------------------------------------------------          Layer (type)               Output Shape         Param #  ================================================================              Conv2d-1         [-1, 64, 150, 150]           1,792                ReLU-2         [-1, 64, 150, 150]               0              Conv2d-3         [-1, 64, 150, 150]          36,928                ReLU-4         [-1, 64, 150, 150]               0           MaxPool2d-5           [-1, 64, 75, 75]               0              Conv2d-6          [-1, 128, 75, 75]          73,856                ReLU-7          [-1, 128, 75, 75]               0              Conv2d-8          [-1, 128, 75, 75]         147,584                ReLU-9          [-1, 128, 75, 75]               0          MaxPool2d-10          [-1, 128, 37, 37]               0             Conv2d-11          [-1, 256, 37, 37]         295,168               ReLU-12          [-1, 256, 37, 37]               0             Conv2d-13          [-1, 256, 37, 37]         590,080               ReLU-14          [-1, 256, 37, 37]               0             Conv2d-15          [-1, 256, 37, 37]         590,080               ReLU-16          [-1, 256, 37, 37]               0          MaxPool2d-17          [-1, 256, 18, 18]               0             Conv2d-18          [-1, 512, 18, 18]       1,180,160               ReLU-19          [-1, 512, 18, 18]               0             Conv2d-20          [-1, 512, 18, 18]       2,359,808               ReLU-21          [-1, 512, 18, 18]               0             Conv2d-22          [-1, 512, 18, 18]       2,359,808               ReLU-23          [-1, 512, 18, 18]               0          MaxPool2d-24            [-1, 512, 9, 9]               0             Conv2d-25            [-1, 512, 9, 9]       2,359,808               ReLU-26            [-1, 512, 9, 9]               0             Conv2d-27            [-1, 512, 9, 9]       2,359,808               ReLU-28            [-1, 512, 9, 9]               0             Conv2d-29            [-1, 512, 9, 9]       2,359,808               ReLU-30            [-1, 512, 9, 9]               0          MaxPool2d-31            [-1, 512, 4, 4]               0  AdaptiveAvgPool2d-32            [-1, 512, 7, 7]               0             Linear-33                 [-1, 4096]     102,764,544               ReLU-34                 [-1, 4096]               0            Dropout-35                 [-1, 4096]               0             Linear-36                 [-1, 4096]      16,781,312               ReLU-37                 [-1, 4096]               0            Dropout-38                 [-1, 4096]               0             Linear-39                 [-1, 1000]       4,097,000  ================================================================  Total params: 138,357,544  Trainable params: 138,357,544  Non-trainable params: 0  ----------------------------------------------------------------  Input size (MB): 0.26  Forward/backward pass size (MB): 96.93  Params size (MB): 527.79  Estimated Total Size (MB): 624.98  ----------------------------------------------------------------"
…
    "explanation": "此題為 114 年第二次中級能力鑑定考試公告試題。",
    "id": 141
  },
  {
    "subject": "L23 機器學習技術與應用",
    "chapter": "114年第二次歷屆考題",
    "assessmentTopic": "歷屆",
    "assessmentContent": "",
    "num": 42,
    "question": "【背景說明：載入預訓練的 VGG16 模型並輸出其完整層級結構與參數統計摘要如下】\n```python\nfrom torchsummary import summary\nfrom torchvision import models\nmodel = models.vgg16(weights='IMAGENET1K_V1')\nsummary(model, (3, 150, 150))\n```\n\n輸出摘要表：\n```\nLayer (type)                 Output Shape              Param #\n================================================================\nConv2d-1                     [-1, 64, 150, 150]        1,792\nReLU-2                       [-1, 64, 150, 150]        0\nConv2d-3                     [-1, 64, 150, 150]        36,928\nReLU-4                       [-1, 64, 150, 150]        0\nMaxPool2d-5                  [-1, 64, 75, 75]          0\nConv2d-6                     [-1, 128, 75, 75]         73,856\nReLU-7                       [-1, 128, 75, 75]         0\nConv2d-8                     [-1, 128, 75, 75]         147,584\nReLU-9                       [-1, 128, 75, 75]         0\nMaxPool2d-10                 [-1, 128, 37, 37]         0\nConv2d-11                    [-1, 256, 37, 37]         295,168\nReLU-12                      [-1, 256, 37, 37]         0\nConv2d-13                    [-1, 256, 37, 37]         590,080\nReLU-14                      [-1, 256, 37, 37]         0\nConv2d-15                    [-1, 256, 37, 37]         590,080\nReLU-16                      [-1, 256, 37, 37]         0\nMaxPool2d-17                 [-1, 256, 18, 18]         0\nConv2d-18                    [-1, 512, 18, 18]         1,180,160\nReLU-19                      [-1, 512, 18, 18]         0\nConv2d-20                    [-1, 512, 18, 18]         2,359,808\nReLU-21                      [-1, 512, 18, 18]         0\nConv2d-22                    [-1, 512, 18, 18]         2,359,808\nReLU-23                      [-1, 512, 18, 18]         0\nMaxPool2d-24                 [-1, 512, 9, 9]           0\nConv2d-25                    [-1, 512, 9, 9]           2,359,808\nReLU-26                      [-1, 512, 9, 9]           0\nConv2d-27                    [-1, 512, 9, 9]           2,359,808\nReLU-28                      [-1, 512, 9, 9]           0\nConv2d-29                    [-1, 512, 9, 9]           2,359,808\nReLU-30                      [-1, 512, 9, 9]           0\nMaxPool2d-31                 [-1, 512, 4, 4]           0\nAdaptiveAvgPool2d-32         [-1, 512, 7, 7]           0\nLinear-33                    [-1, 4096]                102,764,544\nReLU-34                      [-1, 4096]                0\nDropout-35                   [-1, 4096]                0\nLinear-36                    [-1, 4096]                16,781,312\nReLU-37                      [-1, 4096]                0\nDropout-38                   [-1, 4096]                0\nLinear-39                    [-1, 1000]                4,097,000\n================================================================\nTotal params: 138,357,544\nTrainable params: 138,357,544\nNon-trainable params: 0\n----------------------------------------------------------------\nInput size (MB): 0.26\n```\n\n在深度神經網路中，不同層的參數量（parameter count）差異極大。有些 層雖然數量少但計算量大，有些則相反。了解參數分佈情形，有助於模型 壓縮與遷移學習設計。請問在 VGG16 中，下列何者的參數量最多？",
    "options": [
      "卷積層(Conv2d)；",
      "全連接層(Linear)；",
…
